…
               padding=1, \n                        se=False,          #(5)\n                        activation=nn.ReLU6())  #(6)\n\nx = torch.randn(1, 16, 112, 112)           #(7)\nout = bottleneck(x)\n```", "```py\n# Codeblock 8 Output\noriginal        : torch.Size([1, 16, 112, 112])\nafter conv0     : torch.Size([1, 64, 112, 112])\nafter conv1     : torch.Size([1, 64, 56, 56])\nafter semodule  : torch.Size([1, 64, 56, 56])\nafter conv2     : torch.Size([1, 24, 56, 56])\n```", "```py\n# Codeblock 9\nbottleneck\n```", "```py\n# Codeblock 9 Output\nBottleneck(\n  (conv0): ConvBlock(\n    (conv): Conv2d(16, 64, kernel_size=(1, 1), stride=(1, 1), bias=False)\n    (bn): BatchNorm2d(64, eps=1e-05, momentum=0.1, affine=True, track_running_stats=True)\n    (activation): ReLU6()\n  )\n  (conv1): ConvBlock(\n    (conv): Conv2d(64, 64, kernel_size=(3, 3), stride=(2, 2), padding=(1, 1), groups=64, bias=False)\n    (bn): BatchNorm2d(64, eps=1e-05, momentum=0.1, affine=True, track_running_stats=True)\n    (activation): ReLU6()\n  )\n  (semodule): Identity()\n  (conv2): ConvBlock(\n    (conv): Conv2d(64, 24, kernel_size=(1, 1), stride=(1, 1), bias=False)\n    (bn): BatchNorm2d(24, eps=1e-05, momentum=0.1, affine=True, track_running_stats=True)\n    (activation): Identity()\n  )\n)\n```", "```py\n# Codeblock 10\nbottleneck = Bottleneck(in_channels=24, \n                        out_channels=40, \n                        kernel_size=5, \n                        exp_size=72,\n                        stride=2, \n                        padding=2, \n                        se=True, \n                        activation=nn.ReLU6())\n\nbottleneck\n```", "```py\n# Codeblock 10 Output\nBottleneck(\n  (conv0): ConvBlock(\n    (conv): Conv2d(24, 72, kernel_size=(1, 1), stride=(1, 1), bias=False)\n    (bn): BatchNorm2d(72, eps=1e-05, momentum=0.1, affine=True, track_running_stats=True)\n    (activation): ReLU6()\n  )\n  (conv1): ConvBlock(\n    (conv): Conv2d(72, 72, kernel_size=(5, 5), stride=(2, 2), padding=(2, 2), groups=72, bias=False)\n    (bn): BatchNorm2d(72, eps=1e-05, momentum=0.1, affine=True, track_running_stats=True)\n    (activation): ReLU6()\n  )\n  (semodule): SEModule(\n    (global_pooling): AdaptiveAvgPool2d(output_size=(1, 1))\n    (fc0): Linear(in_features=72, out_features=18, bias=False)\n    (relu6): ReLU6()\n    (fc1): Linear(in_features=18, out_features=72, bias=False)\n    (hardsigmoid): Hardsigmoid()\n  )\n  (conv2): ConvBlock(\n    (conv): Conv2d(72, 40, kernel_size=(1, 1), stride=(1, 1), bias=False)\n    (bn): BatchNorm2d(40, eps=1e-05, momentum=0.1, affine=True, track_running_stats=True)\n    (activation): Identity()\n  )\n)\n```", "```py\n# Codeblock 11\nHS = nn.Hardswish()\nRE = nn.ReLU6()\n\nBOTTLENECKS = [[16,  16,  3, 16,  False, RE, 1, 1], \n               [16,  24,  3, 64,  False, RE, 2, 1], \n               [24,  24,  3, 72,  False, RE, 1, 1], \n               [24,  40,  5, 72,  True,  RE, 2, 2], \n       
…
