…
er fc                     : torch.Size([1, 1000])          #(3)\nafter softmax                : torch.Size([1, 1000])\n```", "```py\n# Codeblock 10\nmobilenetv1 = MobileNetV1()\nsummary(mobilenetv1, input_size=(BATCH_SIZE, IN_CHANNELS, IMAGE_SIZE, IMAGE_SIZE))\n```", "```py\n# Codeblock 10 Output\n==========================================================================================\nLayer (type:depth-idx)                   Output Shape              Param #\n==========================================================================================\nMobileNetV1                              [1, 1000]                 --\nтФЬтФАFirstConv: 1-1                         [1, 32, 112, 112]         --\nтФВ    тФФтФАConv2d: 2-1                       [1, 32, 112, 112]         864\nтФВ    тФФтФАBatchNorm2d: 2-2                  [1, 32, 112, 112]         64\nтФВ    тФФтФАReLU: 2-3                         [1, 32, 112, 112]         --\nтФЬтФАDepthwiseSeparableConv: 1-2            [1, 64, 112, 112]         --\nтФВ    тФФтФАConv2d: 2-4                       [1, 32, 112, 112]         288\nтФВ    тФФтФАBatchNorm2d: 2-5                  [1, 32, 112, 112]         64\nтФВ    тФФтФАReLU: 2-6                         [1, 32, 112, 112]         --\nтФВ    тФФтФАConv2d: 2-7                       [1, 64, 112, 112]         2,048\nтФВ    тФФтФАBatchNorm2d: 2-8                  [1, 64, 112, 112]         128\nтФВ    тФФтФАReLU: 2-9                         [1, 64, 112, 112]         --\nтФЬтФАDepthwiseSeparableConv: 1-3            [1, 128, 56, 56]          --\nтФВ    тФФтФАConv2d: 2-10                      [1, 64, 56, 56]           576\nтФВ    тФФтФАBatchNorm2d: 2-11                 [1, 64, 56, 56]           128\nтФВ    тФФтФАReLU: 2-12                        [1, 64, 56, 56]           --\nтФВ    тФФтФАConv2d: 2-13                      [1, 128, 56, 56]          8,192\nтФВ    тФФтФАBatchNorm2d: 2-14                 [1, 128, 56, 56]          256\nтФВ    тФФтФАReLU: 2-15                        [1, 128, 56, 56]          --\nтФЬтФАDepthwiseSeparableConv: 1-4            [1, 128, 56, 56]          --\nтФВ    тФФтФАConv2d: 2-16                      [1, 128, 56, 56]          1,152\nтФВ    тФФтФАBatchNorm2d: 2-17                 [1, 128, 56, 56]          256\nтФВ    тФФтФАReLU: 2-18                        [1, 128, 56, 56]          --\nтФВ    тФФтФАConv2d: 2-19                      [1, 128, 56, 56]          16,384\nтФВ    тФФтФАBatchNorm2d: 2-20                 [1, 128, 56, 56]          256\nтФВ    тФФтФАReLU: 2-21                        [1, 128, 56, 56]          --\nтФЬтФАDepthwiseSeparableConv: 1-5            [1, 256, 28, 28]          --\nтФВ    тФФтФАConv2d: 2-22                      [1, 128, 28, 28]          1,152\nтФВ    тФФтФАBatchNorm2d: 2-23                 [1, 128, 28, 28]          256\nтФВ    тФФтФАReLU: 2-24                        [1, 128, 28, 28]          --\nтФВ    тФФтФАConv2d: 2-25                      [1, 256, 28, 28]          32,768\nтФВ    тФФтФАBatchNorm2d: 2-26                 [1, 256, 28, 28]          512\nтФВ    тФФтФАReLU: 2-27                        [1, 256, 28, 28]          --\nтФЬтФАDepthwiseSeparableConv: 1-6            [1, 256, 28, 28]          --\nтФВ    тФФтФАConv2d: 2-28                      [1, 256, 28, 28]          2,304\nтФВ    тФФтФАBatchNorm2d: 2-29                 [1, 256, 28, 28]          512\nтФВ    тФФтФАReLU: 2-30                        [1, 256, 28, 28]          --\nтФВ    тФФтФАConv2d: 2-31                      [1, 256, 28, 28]          65,536\nтФВ    тФФтФАBatchNorm2d: 2-32                 [1, 256, 28, 28]          512\nтФВ    тФФтФАReLU: 2-33                        [1, 256, 28, 28]          --\nтФЬтФАDepthwiseSeparableConv: 1-7            [1, 512, 14, 14]          --\nтФВ    тФФтФАConv2d: 2-34                      [1, 256, 14, 14]          2,304\nтФВ    тФФтФАBatchNorm2d: 2-35                 [1, 256, 14, 14]          512\nтФВ    тФФтФАReLU: 2-36                        [1, 256, 14, 14]          --\nтФВ    тФФтФАConv2d: 2-37                      [1, 512, 14, 14]          131,072\nтФВ    тФФтФАBatchNorm2d: 2-38                 [1, 512, 14, 14]          1,024\nтФВ    тФФтФАReLU: 2-39                        [1, 512, 14, 14]          --\nтФЬтФАModuleList: 1-8                        --                        --\nтФВ    тФФтФАDepthwiseSeparableConv: 2-40      [1, 512, 14, 14]          --\nтФВ    тФВ    тФФтФАConv2d: 3-1                  [1, 512, 14, 14]          4,608\nтФВ    тФВ    тФФтФАBatchNorm2d: 3-2             [1, 512, 14, 14]          1,024\nтФВ    тФВ    тФФтФАReLU: 3-3                    [1, 512, 14, 14]          --\nтФВ    тФВ    тФФтФАConv2d: 3-4                  [1, 512, 14, 14]          262,144\nтФВ    тФВ    тФФтФАBatchNorm2d: 3-5             [1, 512, 14, 14]          1,024\nтФВ    тФВ    тФФтФАReLU: 3-6                    [1, 512, 14, 14]          --\nтФВ    тФФтФАDepthwiseSeparableConv: 2-41      [1, 512, 14, 14]          --\nтФВ    тФВ    тФФтФАConv2d: 3-7                  [1, 512, 14, 14]          4,608\nтФВ    тФВ    тФФтФАBatchNorm2d: 3-8             [1, 512, 14, 14]          1,024\nтФВ    тФВ    тФФтФАReLU: 3-9                    [1, 512, 14, 14]          --\nтФВ    тФВ    тФФтФАConv2d: 3-10                 [1, 512, 14, 14]          262,144\nтФВ    тФВ    тФФтФАBatchNorm2d: 3-11            [1, 512, 14, 14]          1,024\nтФВ    тФВ    тФФтФАReLU: 3-12                   [1, 512, 14, 14]          --\nтФВ    тФФтФАDepthwiseSeparableConv: 2-42      [1, 512, 14, 14]          --\nтФВ    тФВ    тФФтФАConv2d: 3-13                 [1, 512, 14, 14]          4,608\nтФВ    тФВ    тФФтФАBatchNorm2d: 3-14            [1, 512, 14, 14]          1,024\nтФВ    тФВ    тФФтФАReLU: 3-15                   [1, 512, 14, 14]          --\nтФВ    тФВ    тФФтФАConv2d: 3-16                 [1, 512, 14, 14]          262,144\nтФВ    тФВ    тФФтФАBatchNorm2d: 3-17            [1, 512, 14, 14]          1,024\nтФВ    тФВ    тФФтФАReLU: 3-18                   [1, 512, 14, 14]          --\nтФВ    тФФтФАDepthwiseSeparableConv: 2-43      [1, 512, 14, 14]          --\nтФВ    тФВ    тФФтФАConv2d: 3-19                 [1, 512, 14, 14]          4,608\nтФВ    тФВ    тФФтФАBatchNorm2d: 3-20            [1, 512, 14, 14]          1,024\nтФВ    тФВ    тФФтФАReLU: 3-21                   [1, 512, 14, 14]          --\nтФВ    тФВ    тФФтФАConv2d: 3-22                 [1, 512, 14, 14]          262,144\nтФВ    тФВ    тФФтФАBatchNorm2d: 3-23            [1, 512, 14, 14]          1,024\nтФВ    тФВ    тФФтФАReLU: 3-24                   [1, 512, 14, 14]          --\nтФВ    тФФтФАDepthwiseSeparableConv: 2-44      [1, 512, 14, 14]          --\nтФВ    тФВ    тФФтФАConv2d: 3-25                 [1, 512, 14, 14]          4,608\nтФВ    тФВ    тФФтФАBatchNorm2d: 3-26            [1, 512, 14, 14]          1,024\nтФВ    тФВ    тФФтФАReLU: 3-27                   [1, 512, 14, 14]          --\nтФВ    тФВ    тФФтФАConv2d: 3-28                 [1, 512, 14, 14]          262,144\nтФВ    тФВ    тФФтФАBatchNorm2d: 3-29            [1, 512, 14, 14]          1,024\nтФВ    тФВ    тФФтФАReLU: 3-30                   [1, 512, 14, 14]          --\nтФЬтФАDepthwiseSeparableConv: 1-9            [1, 1024, 7, 7]           --\nтФВ    тФФтФАConv2d: 2-45                      [1, 512, 7, 7]            4,608\nтФВ    тФФтФАBatchNorm2d: 2-46                 [1, 512, 7, 7]            1,024\nтФВ    тФФтФАReLU: 2-47                        [1, 512, 7, 7]            --\nтФВ    тФФтФАConv2d: 2-48                      [1, 1024, 7, 7]           524,288\nтФВ    тФФтФАBatchNorm2d: 2-49                 [1, 1024, 7, 7]           2,048\nтФВ    тФФтФАReLU: 2-50                        [1, 1024, 7, 7]           --\nтФЬтФАDepthwiseSeparableConv: 1-10           [1, 1024, 7, 7]           --\nтФВ    тФФтФАConv2d: 2-51                      [1, 1024, 7, 7]           9,216\nтФВ    тФФтФАBatchNorm2d: 2-52                 [1, 1024, 7, 7]           2,048\nтФВ    тФФтФАReLU: 2-53                        [1, 1024, 7, 7]           --\nтФВ    тФФтФАConv2d: 2-54                      [1, 1024, 7, 7]           1,048,576\nтФВ    тФФтФАBatchNorm2d: 2-55                 [1, 1024, 7, 7]           2,048\nтФВ    тФФтФАReLU: 2-56                        [1, 1024, 7, 7]           --\nтФЬтФАAdaptiveAvgPool2d: 1-11                [1, 1024, 1, 1]           --\nтФЬтФАLinear: 1-12                           [1, 1000]                 1,025,000\nтФЬтФАSoftmax: 1-13                          [1, 1000]                 --\n==========================================================================================\nTotal params: 4,231,976\nTrainable params: 4,231,976\nNon-trainable params: 0\nTotal mult-adds (Units.MEGABYTES): 568.76\n==========================================================================================\nInput size (MB): 0.60\nForward/backward pass size (MB): 80.69\nParams size (MB): 16.93\nEsti
…
