…
)\ndist_out          : torch.Size([1, 768])\nafter class_head  : torch.Size([1, 1000])         #(4)\nafter dist_head   : torch.Size([1, 1000])         #(5)\n```", "```py\n# Codeblock 9\nsummary(deit, input_size=(BATCH_SIZE, IN_CHANNELS, IMAGE_SIZE, IMAGE_SIZE))\n```", "```py\n# Codeblock 9 Output\n==========================================================================================\nLayer (type:depth-idx)                   Output Shape              Param #\n==========================================================================================\nDeiT                                     [1, 1000]                 445,440\nтФЬтФАPatcher: 1-1                           [1, 576, 768]             --\nтФВ    тФФтФАConv2d: 2-1                       [1, 768, 24, 24]          590,592\nтФВ    тФФтФАFlatten: 2-2                      [1, 768, 576]             --\nтФЬтФАModuleList: 1-2                        --                        --\nтФВ    тФФтФАEncoder: 2-3                      [1, 578, 768]             --\nтФВ    тФВ    тФФтФАLayerNorm: 3-1               [1, 578, 768]             1,536\nтФВ    тФВ    тФФтФАMultiheadAttention: 3-2      [1, 578, 768]             2,362,368\nтФВ    тФВ    тФФтФАLayerNorm: 3-3               [1, 578, 768]             1,536\nтФВ    тФВ    тФФтФАSequential: 3-4              [1, 578, 768]             4,722,432\nтФВ    тФФтФАEncoder: 2-4                      [1, 578, 768]             --\nтФВ    тФВ    тФФтФАLayerNorm: 3-5               [1, 578, 768]             1,536\nтФВ    тФВ    тФФтФАMultiheadAttention: 3-6      [1, 578, 768]             2,362,368\nтФВ    тФВ    тФФтФАLayerNorm: 3-7               [1, 578, 768]             1,536\nтФВ    тФВ    тФФтФАSequential: 3-8              [1, 578, 768]             4,722,432\nтФВ    тФФтФАEncoder: 2-5                      [1, 578, 768]             --\nтФВ    тФВ    тФФтФАLayerNorm: 3-9               [1, 578, 768]             1,536\nтФВ    тФВ    тФФтФАMultiheadAttention: 3-10     [1, 578, 768]             2,362,368\nтФВ    тФВ    тФФтФАLayerNorm: 3-11              [1, 578, 768]             1,536\nтФВ    тФВ    тФФтФАSequential: 3-12             [1, 578, 768]             4,722,432\nтФВ    тФФтФАEncoder: 2-6                      [1, 578, 768]             --\nтФВ    тФВ    тФФтФАLayerNorm: 3-13              [1, 578, 768]             1,536\nтФВ    тФВ    тФФтФАMultiheadAttention: 3-14     [1, 578, 768]             2,362,368\nтФВ    тФВ    тФФтФАLayerNorm: 3-15              [1, 578, 768]             1,536\nтФВ    тФВ    тФФтФАSequential: 3-16             [1, 578, 768]             4,722,432\nтФВ    тФФтФАEncoder: 2-7                      [1, 578, 768]             --\nтФВ    тФВ    тФФтФАLayerNorm: 3-17              [1, 578, 768]             1,536\nтФВ    тФВ    тФФтФАMultiheadAttention: 3-18     [1, 578, 768]             2,362,368\nтФВ    тФВ    тФФтФАLayerNorm: 3-19              [1, 578, 768]             1,536\nтФВ    тФВ    тФФтФАSequential: 3-20             [1, 578, 768]             4,722,432\nтФВ    тФФтФАEncoder: 2-8                      [1, 578, 768]             --\nтФВ    тФВ    тФФтФАLayerNorm: 3-21              [1, 578, 768]             1,536\nтФВ    тФВ    тФФтФАMultiheadAttention: 3-22     [1, 578, 768]             2,362,368\nтФВ    тФВ    тФФтФАLayerNorm: 3-23              [1, 578, 768]             1,536\nтФВ    тФВ    тФФтФАSequential: 3-24             [1, 578, 768]             4,722,432\nтФВ    тФФтФАEncoder: 2-9                      [1, 578, 768]             --\nтФВ    тФВ    тФФтФАLayerNorm: 3-25              [1, 578, 768]             1,536\nтФВ    тФВ    тФФтФАMultiheadAttention: 3-26     [1, 578, 768]             2,362,368\nтФВ    тФВ    тФФтФАLayerNorm: 3-27              [1, 578, 768]             1,536\nтФВ    тФВ    тФФтФАSequential: 3-28             [1, 578, 768]             4,722,432\nтФВ    тФФтФАEncoder: 2-10                     [1, 578, 768]             --\nтФВ    тФВ    тФФтФАLayerNorm: 3-29              [1, 578, 768]             1,536\nтФВ    тФВ    тФФтФАMultiheadAttention: 3-30     [1, 578, 768]             2,362,368\nтФВ    тФВ    тФФтФАLayerNorm: 3-31              [1, 578, 768]             1,536\nтФВ    тФВ    тФФтФАSequential: 3-32             [1, 578, 768]             4,722,432\nтФВ    тФФтФАEncoder: 2-11                     [1, 578, 768]             --\nтФВ    тФВ    тФФтФАLayerNorm: 3-33              [1, 578, 768]             1,536\nтФВ    тФВ    тФФтФАMultiheadAttention: 3-34     [1, 578, 768]             2,362,368\nтФВ    тФВ    тФФтФАLayerNorm: 3-35              [1, 578, 768]             1,536\nтФВ    тФВ    тФФтФАSequential: 3-36             [1, 578, 768]             4,722,432\nтФВ    тФФтФАEncoder: 2-12                     [1, 578, 768]             --\nтФВ    тФВ    тФФтФАLayerNorm: 3-37              [1, 578, 768]             1,536\nтФВ    тФВ    тФФтФАMultiheadAttention: 3-38     [1, 578, 768]             2,362,368\nтФВ    тФВ    тФФтФАLayerNorm: 3-39              [1, 578, 768]             1,536\nтФВ    тФВ    тФФтФАSequential: 3-40             [1, 578, 768]             4,722,432\nтФВ    тФФтФАEncoder: 2-13                     [1, 578, 768]             --\nтФВ    тФВ    тФФтФАLayerNorm: 3-41              [1, 578, 768]             1,536\nтФВ    тФВ    тФФтФАMultiheadAttention: 3-42     [1, 578, 768]             2,362,368\nтФВ    тФВ    тФФтФАLayerNorm: 3-43              [1, 578, 768]             1,536\nтФВ    тФВ    тФФтФАSequential: 3-44             [1, 578, 768]             4,722,432\nтФВ    тФФтФАEncoder: 2-14                     [1, 578, 768]             --\nтФВ    тФВ    тФФтФАLayerNorm: 3-45              [1, 578, 768]             1,536\nтФВ    тФВ    тФФтФАMultiheadAttention: 3-46     [1, 578, 768]             2,362,368\nтФВ    тФВ    тФФтФАLayerNorm: 3-47              [1, 578, 768]             1,536\nтФВ    тФВ    тФФтФАSequential: 3-48             [1, 578, 768]             4,722,432\nтФЬтФАLayerNorm: 1-3                         [1, 578, 768]             1,536\nтФЬтФАLinear: 1-4                            [1, 1000]                 769,000\nтФЬтФАLinear: 1-5                            [1, 1000]                 769,000\n==========================================================================================\nTotal params: 87,630,032\nTrainable params: 87,630,032\nNon-trainable params: 0\nTotal mult-adds (Units.MEGABYTES): 398.43\n==========================================================================================\nInput size (MB): 1.77\nForward/backward pass size (MB): 305.41\nParams size (MB): 235.34\n
…
